best_stocklstm.pth (torch, 128181 bytes, 9 tensors)

lstm.weight_ih_l0 f4 [200, 1]
0	0xbe35e775	-0.17764075
1	0xbe17d99c	-0.14829105
2	0xbdb0e1de	-0.08636831
3	0x3d8ec0bf	0.06970357
4	0x3e065c64	0.13121182
5	0x3e219914	0.15781051
6	0xbb51ec71	-0.00320318
7	0xbb032e1c	-0.0020016497
8	0x3e1b88c9	0.15188898
9	0xbbff3585	-0.0077883624
10	0xbc9410d0	-0.018074423
11	0xbd0627cd	-0.0327528
12	0xbd064513	-0.032780718
13	0xbdaa4139	-0.083132215
14	0x3de71f6d	0.11285291
15	0x3e25f42b	0.16206424
16	0xbc80ac3e	-0.015707131
17	0xbcfad0ad	-0.030617082
18	0x3d739e55	0.05947717
19	0xbd94289e	-0.072343096
20	0xbd75f3f9	-0.060047124
21	0x3d33dfd7	0.043914642
22	0x3dea0dbf	0.11428403
23	0xbe511eba	-0.20421878
24	0xbd4ed868	-0.05049935
25	0xbdf524b7	-0.119698934
26	0x3d9df3dd	0.07712529
27	0x3d9a8983	0.075457595
28	0x3c8f72a1	0.017510714
29	0x3da21855	0.07914797
30	0xbe2d3fe1	-0.16918899
31	0xbc2ec094	-0.010666031
32	0x3d162477	0.03665587
33	0x3d919aba	0.0710959
34	0x3df86603	0.12128832
35	0x3d9f4b58	0.077780426
36	0x3d9338de	0.07188581
37	0x3e2835c0	0.16426754
38	0xbc7360ef	-0.014854654
39	0x3d97fa0e	0.07420741
40	0x3e3d5867	0.18490754
41	0xbd6421cd	-0.055696297
42	0xbc3ec68c	-0.011644017
43	0x3cca8f83	0.024726635
44	0x3e129dde	0.14318034
45	0x3d1e206b	0.038605135
46	0x3dabb45f	0.083840124
47	0xbd8bc26b	-0.06824192
48	0xbe04694f	-0.12930797
49	0x3e1d843a	0.15382472
50	0xbd03df89	-0.0321956
51	0x3d1b1b14	0.03786762
52	0x3d2c3fdd	0.042053092
53	0x3d10f538	0.03539011
54	0x3e0a92ad	0.13532515
55	0x3dcaf384	0.09909728
56	0xbe104fbc	-0.14092916
57	0x3c7430d8	0.014904223
58	0x3e10006a	0.14062658
59	0x3dcb8cba	0.09938951
60	0x3e2b6c73	0.16740589
61	0x3d5cee4f	0.053938206
62	0x3d82cb99	0.063864894
63	0x3dff0c92	0.124535695
64	0x3de053b5	0.10953466
65	0x3e019c7d	0.12657352
66	0x3d917c0c	0.07103738
67	0x3d870542	0.065928
68	0x3cdd99bd	0.027050847
69	0xbdbba7b7	-0.091628484
70	0x3e225fd4	0.15856868
71	0x3c4ed93e	0.012625037
72	0x3e22368d	0.15841122
73	0xbcc248ca	-0.02371635
74	0x3e113365	0.14179762
75	0xbdb58e9f	-0.088650934
76	0xbd5a83bf	-0.0533483
77	0x3d4258d7	0.047448006
78	0x3cf6a9d9	0.030110287
79	0x3dff86fe	0.124769196
80	0xbd46b37b	-0.04851101
81	0xbda91b35	-0.082571425
82	0x3c08671f	0.008325367
83	0x3dde10c5	0.10843042
84	0xbc6f4a2a	-0.014605084
85	0x3e277af2	0.16355494
86	0x3e0f74eb	0.14009444
87	0xbd1836d1	-0.037161652
88	0xbdddbc22	-0.10826899
89	0xbe07a311	-0.13245799
90	0xbd966bb0	-0.073447585
91	0xbb6f30bf	-0.003649756
92	0x3e30e6b0	0.172755
93	0x3da3f167	0.08005028
94	0xbda4989c	-0.080369204
95	0x3e35034c	0.17677039
96	0x3cf78ddc	0.030219011
97	0xbd740fa1	-0.059585217
98	0x3be36c0f	0.006940372
99	0xbd1cf7c5	-0.03832223
100	0x3d942d64	0.0723522
101	0xbe4a0f42	-0.19732383
102	0xbcde0ce6	-0.02710576
103	0xbd40d884	-0.047081485
104	0xbda31f00	-0.07964897
105	0x3e112655	0.14174779
106	0x3c0a9490	0.008458272
107	0x3d86821e	0.06567787
108	0x3e3047f6	0.17214951
109	0xbe06d24f	-0.13166164
110	0x3e472f0d	0.19451542
111	0x3d34af1b	0.044112306
112	0x3baf8e90	0.005357571
113	0x3dc1db9c	0.09465715
114	0xbe462e94	-0.19353706
115	0x3dbcf0c2	0.092256084
116	0xbdccb9c3	-0.09996369
117	0x3dfd7fb0	0.1237787
118	0x3be33c43	0.006934674
119	0x3e45d5fa	0.19319907
120	0x3e3672a6	0.17817172
121	0x3db2e795	0.08735577
122	0x3e3cb31e	0.18427703
123	0x3e056247	0.13025771
124	0x3e1a6d5c	0.1508078
125	0x3deec241	0.11658145
126	0xbe0ecdff	-0.13945769
127	0xbccae645	-0.024768004
128	0x3dd521a7	0.10406809
129	0x3db62089	0.08892924
130	0xbbabe03e	-0.0052452376
131	0xbdb213d0	-0.08695185
132	0x3dac50fe	0.084138855
133	0xbe47e4bb	-0.19520847
134	0x3d8bd772	0.06828202
135	0x3e2c8005	0.1684571
136	0x3e3e29a4	0.18570572
137	0xbdf4e17d	-0.11957071
138	0xbe153917	-0.1457256
139	0x3e29d82c	0.1658637
140	0x3e49a2d3	0.19691019
141	0xbd5f1947	-0.054467466
142	0x3b8ce097	0.004299234
143	0xbe50013a	-0.20312968
144	0xbe29d0e5	-0.16583593
145	0x3d91ec93	0.07125201
146	0x3e52ee8a	0.20598808
147	0xbddb25e1	-0.10700584
148	0xbd8b340d	-0.06797037
149	0x3e087f56	0.13329825
150	0xbc273105	-0.010204558
151	0x3dafe21b	0.08588048
152	0x3d57f83f	0.05272698
153	0x3dfbfeda	0.123044685
154	0x3d9f6c98	0.077843845
155	0x3d1d4eb4	0.038405135
156	0xbcfe45cc	-0.031039141
157	0x3d9aee1b	0.07564946
158	0x3ce34136	0.027741056
159	0x3e0c418e	0.13696882
160	0xbda4afa5	-0.08041314
161	0xbd9977dc	-0.074935645
162	0xbc1923d4	-0.009346921
163	0xbaa8d887	-0.0012881913
164	0x3c263ac1	0.010145844
165	0x3e34fdd6	0.17674956
166	0x3ddc16a2	0.10746504
167	0x3d5e2f73	0.05424447
168	0x3d7149a2	0.058908112
169	0xbcb6c56f	-0.02231094
170	0x3db37bdd	0.087638594
171	0x3e2c3124	0.1681562
172	0x3db8a4d3	0.09015813
173	0xbe3c612b	-0.18396442
174	0x3dfe365a	0.124127105
175	0xbda24eb6	-0.07925169
176	0x3d28f79a	0.041251756
177	0xbe040948	-0.12894166
178	0xbd3a505e	-0.0454868
179	0xbc89b9d3	-0.01681224
180	0xbdf341d4	-0.1187779
181	0xbd0118dc	-0.03151785
182	0x3e002873	0.1251543
183	0xbd21ae15	-0.03947266
184	0x3d35200d	0.04422002
185	0x3d392fb3	0.045211505
186	0x3d4d3b25	0.050105233
187	0x3e0841af	0.13306306
188	0xbd2f7885	-0.042839546
189	0xbd852926	-0.06501989
190	0x3d48b782	0.04900313
191	0xbc244db1	-0.010028289
192	0x3dcf0066	0.10107498
193	0x3bd30cc2	0.00644073
194	0x3de0705b	0.1095893
195	0x3dea99a6	0.11455087
196	0xbc6747d1	-0.014116243
197	0xbe23ccb6	-0.1599606
198	0x3d104242	0.03521944
199	0xbbc4f401	-0.006010533

lstm.weight_hh_l0 f4 [200, 50]
0	0xbe0e4ef9	-0.13897313
1	0xbc710de3	-0.0147127835
2	0x3e605f89	0.21911444
3	0x3d950684	0.072766334
4	0x3e08d865	0.13363798
5	0x3ddfd2ac	0.10928854
6	0xbd60b4c2	-0.054859884
7	0x3d414132	0.047181316
8	0xbcf3974e	-0.029735234
9	0x3ce1fc3e	0.027586099
10	0xbe48b9a4	-0.19602066
11	0xbbb96723	-0.005658047
12	0x3c329bea	0.010901431
13	0xbd9381eb	-0.07202514
14	0xbdaf28e5	-0.08552722
15	0x3ddea0d2	0.10870518
16	0xbd82df8b	-0.06390294
17	0xbc9ea629	-0.01936634
18	0x3e114d78	0.14189708
19	0x3d6d6215	0.057954866
20	0xbb4d9995	-0.003137206
21	0x3c40be90	0.011764184
22	0x3cd04661	0.025424184
23	0xbe7e4d78	-0.2483424
24	0x3d8c41fa	0.068485215
25	0xbe10133a	-0.14069834
26	0x3e0d4dbd	0.13799186
27	0x3e2e3429	0.17012085
28	0x3be6fd72	0.007049256
29	0xbcb8c7d7	-0.022556229
30	0x3e56f813	0.2099307
31	0xbd12f692	-0.03587968
32	0x3d6c68d8	0.057717174
33	0x3d4fa5bb	0.050695162
34	0xbe1874ba	-0.14888278
35	0xbdae51ef	-0.08511721
36	0xbd56c8c4	-0.05243756
37	0xbdb96578	-0.09052557
38	0x3de52b46	0.111898944
39	0xbe6b78fe	-0.22995374
40	0xbc39c9db	-0.01133963
41	0xbdadec2f	-0.08492314
42	0xbdb00ffd	-0.085967995
43	0x3de0b908	0.10972792
44	0xbd49170e	-0.049094252
45	0xbe0ecdf7	-0.13945757
46	0x3dc72d70	0.097254634
47	0x3d1f5c22	0.038906224
48	0x3e0a320e	0.13495657
49	0x3e2dbf05	0.169674
50	0xbe848f47	-0.25890562
51	0xbc592e7a	-0.01325571
52	0x3cb3416b	0.02188178
53	0xbd885592	-0.06656946
54	0xbd7c5098	-0.061600298
55	0xba5796f0	-0.00082240906
56	0x3d6c16db	0.057638984
57	0x3d2a68cd	0.041603852
58	0x3d3773c2	0.04478813
59	0x3e24b0ef	0.1608312
60	0xbe25d2a4	-0.16193634
61	0xbdb79d4d	-0.089655496
62	0x3e17fe92	0.14843205
63	0x3d152d1e	0.03641998
64	0xbc025048	-0.007953711
65	0xbe1c959e	-0.1529145
66	0xbdcf012a	-0.10107644
67	0x3d802bf9	0.06258387
68	0x3e083c34	0.13304216
69	0x3d1e5a6b	0.038660448
70	0xbd59a581	-0.053136352
71	0x3e0306f5	0.12795623
72	0x3cbb42cc	0.022859
73	0xba7304dc	-0.00092704385
74	0x3d1d8205	0.038454074
75	0xbe85a875	-0.26105085
76	0xbd40186b	-0.046898287
77	0xbce81538	-0.02833043
78	0xbd8e4f1d	-0.069486834
79	0x3da84a01	0.0821724
80	0xbd53c2ab	-0.05169932
81	0x3d00edd8	0.031476825
82	0x3e1a56d7	0.1507219
83	0xbc5a7104	-0.013332609
84	0x3dc75834	0.0973362
85	0x3dbe0d01	0.09279824
86	0x3d9cb4f4	0.076517016
87	0x3d973d3a	0.07384725
88	0xbd262a7b	-0.040567856
89	0xbd9c2958	-0.07625073
90	0x3e11ad0c	0.14226168
91	0xbd102493	-0.03519113
92	0x3dfaad52	0.122400895
93	0xbbfe98ef	-0.007769696
94	0x3bf6b380	0.0075287223
95	0xbdb55565	-0.08854178
96	0x3d8aa7de	0.067702994
97	0xbd842318	-0.06452006
98	0x3e03bb1c	0.12864345
99	0x3cef57f0	0.029216737
100	0x392b321e	0.00016326501
101	0xbd91a55a	-0.071116164
102	0x3dbe5c67	0.09294968
103	0xbd1bc933	-0.038033675
104	0xbd1ae127	-0.03781238
105	0xbdd40e4f	-0.10354292
106	0xbcfa2670	-0.030535907
107	0xbdb28367	-0.08716469
108	0xbe54f859	-0.20797862
109	0x3df1e6c9	0.11811597
110	0xbe18e48a	-0.1493093
111	0xbd8b9aeb	-0.06816658
112	0xbe16133a	-0.14655772
113	0x3cd776e4	0.026301809
114	0xbd9de6b9	-0.077100225
115	0xbd9630b4	-0.07333508
116	0x3dee61b8	0.11639732
117	0xbdbc0cbd	-0.09182117
118	0xbe20a864	-0.15689236
119	0xbe2959c7	-0.16538154
120	0xbc23928a	-0.009983668
121	0x3e477842	0.19479468
122	0xbdcb38fd	-0.09922979
123	0xbcd4ee95	-0.025992671
124	0xbcc28384	-0.023744352
125	0xbe99e11b	-0.30054554
126	0x3d7d0f7f	0.061782356
127	0xbc14dd6d	-0.009085995
128	0x3aedaba4	0.0018132818
129	0xbda62070	-0.08111656
130	0xbd258c64	-0.04041709
131	0x3e2e4d63	0.17021708
132	0x3c6ae03d	0.014335689
133	0x3b026075	0.0019893919
134	0xbe0108f1	-0.12601067
135	0x3cb47700	0.0220294
136	0x3d0fcb0d	0.035105754
137	0x3e16f93f	0.14743517
138	0x3e1a51c5	0.15070255
139	0xbd81b1b2	-0.06332721
140	0x3aff1632	0.0019461571
141	0xbc66ca1a	-0.014086271
142	0xbe1a1d03	-0.1505013
143	0x3e2cb1cb	0.16864698
144	0xbd4ce8f7	-0.05002686
145	0x3cb1ee7d	0.021720165
146	0xbe3a5ff7	-0.1820067
147	0x3db0de2d	0.08636127
148	0x3db0d8cb	0.086351
149	0xbd501c28	-0.050808102
150	0xbc9a0d28	-0.018805102
151	0xbdebb6a9	-0.11509449
152	0xbccb3ef4	-0.024810292
153	0xbdddb433	-0.10825386
154	0x3dcfd6b8	0.10148376
155	0x3c957dad	0.018248403
156	0xbbac5c1a	-0.005260003
157	0x3e116780	0.14199638
158	0x3e1e21c5	0.1544257
159	0xbddae476	-0.10688107
160	0x3e313819	0.17306556
161	0xbd59ed82	-0.05320502
162	0xbe014cee	-0.12627003
163	0x3bbebd5e	0.005820914
164	0x3df9bbec	0.121940464
165	0xbc9a5cc7	-0.018843068
166	0xbe05eb00	-0.13077927
167	0xbd51d600	-0.051229477
168	0x3cbd44af	0.02310404
169	0x3e1ada61	0.15122367
170	0x3e0627da	0.1310114
171	0x3c7840af	0.0151521405
172	0xbda87923	-0.0822623
173	0xbd73bafc	-0.059504494
174	0xbb02f6d1	-0.001998354
175	0x3df7b7ba	0.1209559
176	0xbcb71952	-0.02235094
177	0x3d9a4de9	0.075343914
178	0xbd57df21	-0.052703027
179	0x3c6e9ec7	0.014564223
180	0x3df834ce	0.12119447
181	0xbe087f4b	-0.13329808
182	0x3da9a16f	0.08282744
183	0xbd4c81c3	-0.049928438
184	0x3da43a0d	0.08018885
185	0x3d6ef4f8	0.05833909
186	0x3df28504	0.11841777
187	0x3e04de12	0.12975338
188	0x3d56e0c3	0.052460443
189	0x3c1045d9	0.0088057155
190	0x3d5c1526	0.053731106
191	0xbd412f16	-0.047164045
192	0x3e08eb16	0.13370928
193	0xbdcec18b	-0.10095509
194	0xbdd87630	-0.105694175
195	0xbddd84ed	-0.10816369
196	0xbdc6ccf2	-0.09707059
197	0xbe03358f	-0.128134
198	0x3ca83f15	0.020537892
199	0xbc7a7a5d	-0.015287963
200	0x3d980b25	0.07424001
201	0xbd0be6e5	-0.034155745
202	0xbe0f12d5	-0.13972028
203	0xbc31cc13	-0.010851878
204	0xbd2544a8	-0.04034868
205	0xbc18ea85	-0.009333258
206	0xbbe7081e	-0.007050528
207	0x3da484af	0.0803312
208	0xbd2e54de	-0.042561404
209	0xbe298d11	-0.16557719
210	0xbd88c89d	-0.06678889
211	0xbd1312b7	-0.03590652
212	0x3e1fde73	0.15612201
213	0x3dcb6b8a	0.09932621
214	0x3dad0aa8	0.08449298
215	0x3bb0fd43	0.005401285
216	0xbdcf7678	-0.10130018
217	0x3e21618b	0.15759866
218	0x3e00ac3d	0.12565704
219	0x3ba8cf2d	0.0051516504
220	0x3e15ae89	0.14617361
221	0x3d9cc4e8	0.076547444
222	0x3b58b557	0.0033067071
223	0xbe06b418	-0.13154638
224	0x3e21b9f1	0.15793587
225	0x3dcc8e8f	0.099881284
226	0x3dc65ca8	0.096856415
227	0x3d853864	0.06504896
228	0xbcaa3fa9	-0.020782309
229	0xbe10f115	-0.14154465
230	0xbcfd6d9b	-0.030936053
231	0xbe0dcee4	-0.13848454
232	0xbb2f026d	-0.0026704327
233	0xbc9e4691	-0.019320758
234	0x3d9f08c0	0.07765341
235	0x3e161173	0.14655094
236	0x3e1e9b32	0.1548889
237	0xbd5bd2b0	-0.053667724
238	0x3cf8caa9	0.030370073
239	0xbd99c6c8	-0.07508618
240	0x3cf6a25a	0.030106712
241	0x3dfa2a83	0.1221514
242	0x3db71de7	0.0894125
243	0x3d3c72a4	0.046007767
244	0x3dd119a7	0.10209971
245	0x3d65d957	0.056115475
246	0x3e2396bf	0.15975474
247	0xbde42fb8	-0.11141914
248	0x3d1b310d	0.037888575
249	0xbd854315	-0.065069355
250	0x3dcbfba5	0.09960107
251	0x3d3ca81f	0.04605877
252	0x3df2c2f6	0.11853592
253	0xbd409a33	-0.047022056
254	0xbe0c247d	-0.13685794
255	0x3df16d30	0.11788404

lstm.bias_ih_l0 f4 [200]
0	0xbda3d1d6	-0.079990074
1	0x3e17e3f3	0.1483305
2	0xbd85c60f	-0.06531917
3	0x3d58c10b	0.052918475
4	0x3e120bd0	0.14262319
5	0x3d922b9b	0.07137223
6	0xbe1555d2	-0.14583519
7	0xbdbf7f78	-0.093504846
8	0x3dcd2a27	0.100178055
9	0xbd7d1778	-0.06178996
10	0x3d767242	0.06016756
11	0x3d72dfb5	0.059295375
12	0xb8c3f30e	-9.343597e-05
13	0xbe0d13c2	-0.13777068
14	0x3e01eed2	0.12688759
15	0xbcca8a37	-0.02472411
16	0x3ddf16f8	0.10893053
17	0xbd489561	-0.048970584
18	0xbe0235af	-0.12715791
19	0xbdc25e19	-0.09490604
20	0x3cc8d67c	0.024516337
21	0x3d447e03	0.047971737
22	0x3dc75fc1	0.097350605
23	0x3cc28e91	0.023749622
24	0x3d8ee079	0.069764085
25	0x3da588b5	0.080827154
26	0xbcdff327	-0.027337624
27	0xbd98b9c1	-0.07457305
28	0xbda0b94f	-0.07847845
29	0xbd8a1c4d	-0.06743679
30	0xbbe03d2f	-0.006843231
31	0x3d356487	0.044285323
32	0xbde8dbbd	-0.11370037
33	0x3d41b889	0.047295127
34	0x3dd9ab89	0.10628421
35	0xbda29802	-0.079391494
36	0x3dfa5db3	0.12224903
37	0x3da1b04d	0.07894955
38	0x3d865862	0.065598264
39	0xbd496218	-0.049165815
40	0xbd49f740	-0.04930806
41	0xbd45c9e7	-0.048288252
42	0xbd43abde	-0.047771327
43	0x3ce216c1	0.02759874
44	0xbc5150fc	-0.012775656
45	0xbd53f094	-0.051743105
46	0xbd86a8e1	-0.0657518
47	0x3d766cd3	0.060162377
48	0xbc156ec2	-0.009120645
49	0xbd0d5ceb	-0.03451244
50	0xbc8d9e9d	-0.017287547
51	0x3c31a38d	0.010842216
52	0xbb1fe6cf	-0.0024399047
53	0x3d77ad7a	0.060468175
54	0x3ba5c259	0.0050585684
55	0x3cd0b09b	0.025474837
56	0x3b84eb8d	0.0040564
57	0x3c196dd9	0.009364569
58	0x3d8a33f7	0.06748193
59	0xbcbe5433	-0.023233509
60	0x399a874e	0.0002947398
61	0x3d5b84b0	0.053593338
62	0xbd37f22c	-0.044908687
63	0xbdb58af7	-0.08864396
64	0x3e18b3a4	0.14912277
65	0xbdd52169	-0.10406763
66	0xbdb70155	-0.08935801
67	0xbdcb938d	-0.099402525
68	0xbdfee933	-0.12446823
69	0x3e222418	0.15834081
70	0x3d4b3e47	0.04961994
71	0x3dd69a7e	0.10478686
72	0x3dc69313	0.09696021
73	0x3d2158a7	0.039391186
74	0x3e163b0e	0.14670965
75	0x3d4d9887	0.05019429
76	0x3dc30542	0.09522487
77	0xbd811ab4	-0.06303921
78	0x3d484ad4	0.048899487
79	0xbce7061c	-0.028201155
80	0x3e1704c2	0.14747909
81	0x3c8be6f9	0.01707791
82	0x3e085aa1	0.13315822
83	0x3d93df38	0.0722031
84	0xbda3991a	-0.07988186
85	0xbcabf2cb	-0.020989796
86	0x3e1719c1	0.14755918
87	0x3e02b40d	0.12763996
88	0x3db350d8	0.08755654
89	0xbdc659f0	-0.09685123
90	0xbd12fd96	-0.03588637
91	0x3da724a7	0.08161288
92	0x3d969955	0.073534645
93	0xbd276f5f	-0.040877696
94	0x3de0e2da	0.109807685
95	0x3ddc8b23	0.10768726
96	0xbd84fce2	-0.06493546
97	0x3df13ee4	0.117795736
98	0x3c895fb1	0.016769262
99	0x3dcac592	0.09900965
100	0xbe0a39e1	-0.13498642
101	0x3cef804c	0.029235981
102	0xbb680f3d	-0.0035409473
103	0x3d7cd379	0.061725114
104	0xbd4264b3	-0.047459316
105	0x3dbefe2f	0.093258254
106	0x3df99797	0.121871166
107	0x3daec525	0.08533696
108	0xbd8d97fe	-0.06913756
109	0x3dd9a046	0.10626273
110	0x3d16c4e2	0.036808856
111	0xbd7232fe	-0.05913066
112	0x3d9d6d0c	0.07686815
113	0x3d0e17aa	0.034690537
114	0xbdf69ec2	-0.120419994
115	0xbe07046c	-0.1318528
116	0x3c7d1ca9	0.015448728
117	0xbca9d379	-0.02073072
118	0x3dd00478	0.10157102
119	0x3c8f292b	0.017475685
120	0x3de432a1	0.11142469
121	0xbd96406d	-0.07336507
122	0xbdb593a1	-0.088660486
123	0xbda946c3	-0.0826545
124	0x3dec519c	0.11539003
125	0x3cdc32c2	0.026879672
126	0x3d02206c	0.0317692
127	0x3d1cc5f2	0.038274713
128	0xbde16a26	-0.11006574
129	0xbd772420	-0.060337186
130	0xbe1337a1	-0.1437669
131	0xbd9b9d76	-0.07598393
132	0x3d91577c	0.070967644
133	0xbdf5cbdb	-0.12001773
134	0x3dc555e8	0.09635526
135	0x3d762a66	0.060099028
136	0xbc086594	-0.008324999
137	0xbd0febf6	-0.03513714
138	0xbdd3b8ac	-0.10337958
139	0xbd4b72ca	-0.04967002
140	0x3e0aebc9	0.13566507
141	0x3df11aaa	0.11772664
142	0x3d8ffa3a	0.07030149
143	0xbd7c6cc8	-0.06162718
144	0xbd4dd8ba	-0.050255515
145	0xbdab7f66	-0.08373909
146	0x3d80e1b5	0.0629305
147	0x3d830bc1	0.06398726
148	0x3ca62428	0.020280913
149	0x3da09634	0.07841149
150	0xbd33e9aa	-0.04392401
151	0xbdcea3cd	-0.10089836
152	0xbd5cf99e	-0.05394899
153	0x3db2d4e3	0.08732011
154	0xbd8749ea	-0.06605895
155	0xbdcdbf1f	-0.10046219
156	0xbc0a28eb	-0.008432607
157	0x3d0de1ba	0.034639098
158	0x3c57b574	0.01316582
159	0x3dcf211a	0.101137355
160	0x3d3c9acb	0.04604606
161	0x3de47ace	0.11156236
162	0x3e150438	0.1455239
163	0x3dd18b85	0.10231689
164	0x3e046660	0.12929678
165	0xbdbaae20	-0.09115243
166	0x3daf2e43	0.085537456
167	0x3c5ff67d	0.013669607
168	0xbd327ce7	-0.043576147
169	0xbd71af9f	-0.059005376
170	0x3e2ec6cd	0.17068024
171	0x3dc114e7	0.09427815
172	0x3de3d4f4	0.11124602
173	0x3d55f701	0.052237514
174	0xbdc695ce	-0.09696542
175	0x3dbfd75f	0.09367251
176	0xbdc1498e	-0.094378576
177	0x3dc84b43	0.0977998
178	0xb9a6c9f5	-0.00031812457
179	0xbe0905e0	-0.13381147
180	0xbdbbbaae	-0.09166466
181	0xbdf7149a	-0.12064476
182	0x3b260e1e	0.0025338004
183	0x3c597e06	0.013274675
184	0xbe0111a1	-0.12604381
185	0xbddbb869	-0.10728533
186	0x3e1df7e9	0.15426601
187	0x3dbab73a	0.09116979
188	0x3ccccbd9	0.024999546
189	0x3da9ecf2	0.08297147
190	0x3d007386	0.03136017
191	0xbdc3a8ab	-0.09553655
192	0x3dfc8dce	0.123317346
193	0x3da3aa96	0.07991521
194	0x3d7d7f3d	0.061888922
195	0x3dcc445a	0.099739745
196	0x3d5cfc66	0.053951643
197	0xbd8989a4	-0.06715706
198	0xbdac4839	-0.08412213
199	0xbd87c8cf	-0.06630098

lstm.bias_hh_l0 f4 [200]
0	0x3dcb229b	0.0991871
1	0x3e1975bd	0.1498632
2	0xbd5c9810	-0.053855956
3	0xbd8deb2b	-0.0692962
4	0xbd215680	-0.039389133
5	0x3e0b1253	0.13581209
6	0xbdfcd73d	-0.12345741
7	0x3df960da	0.12176676
8	0x3e35cf61	0.1775489
9	0x3ced79ee	0.028988805
10	0x3d8b95c8	0.06815678
11	0x3d44affb	0.04801939
12	0x3c37f812	0.011228578
13	0x3dbbf22f	0.09177052
14	0x3cda8a6b	0.026677331
15	0x3bee1eb3	0.007266843
16	0x3c169c6c	0.009192567
17	0x3dbda70b	0.092603765
18	0xbde0c05d	-0.109741904
19	0xbd568550	-0.05237323
20	0xbd488acd	-0.048960496
21	0xbca18ac3	-0.019719487
22	0x3dbd0a29	0.092304535
23	0x3d82c80d	0.06385813
24	0x3df6d961	0.120531805
25	0x3dcfb1d1	0.10141338
26	0xbdb0015c	-0.08594009
27	0xbd080c17	-0.033214655
28	0x3c171392	0.0092209745
29	0xbccdb2a8	-0.025109604
30	0x3d1b2f88	0.037887126
31	0x3df7d77f	0.121016495
32	0x3da774b5	0.08176557
33	0x3d57f4a8	0.052723557
34	0x3e1093a8	0.14118826
35	0x3d6f040a	0.05835346
36	0xbd5d3734	-0.054007724
37	0x3da44c61	0.080223806
38	0xbd3fc57f	-0.046819206
39	0x3da592d4	0.08084646
40	0x3dd6af6e	0.10482679
41	0xbde12a1f	-0.10994362
42	0xbd936721	-0.07197405
43	0x3e1a4d60	0.15068579
44	0xbdc99837	-0.09843486
45	0x3e1ee54c	0.15517157
46	0xbb95efc9	-0.0045757038
47	0x3ce02225	0.027360031
48	0xbdc69b07	-0.09697538
49	0x3d3e625e	0.04648053
50	0xbd0cf1fe	-0.03441047
51	0xbdda5cfb	-0.10662266
52	0x3e080764	0.1328407
53	0x3dab4221	0.083622225
54	0xbd0f52aa	-0.034990944
55	0xbd13499b	-0.035958868
56	0x3d56925b	0.05238567
57	0x3df514e2	0.11966874
58	0x3deb0382	0.114752784
59	0x3e2a8eb6	0.16656002
60	0x3df44be3	0.11928537
61	0xbdd2939a	-0.10282059
62	0xbdcf85bc	-0.1013293
63	0xbd5ae411	-0.053440157
64	0x3d622a43	0.055216085
65	0x3dd85e03	0.10564806
66	0xbd3399fd	-0.043848027
67	0x3e0e9431	0.13923718
68	0xbdd2c353	-0.102911614
69	0x3dd8e11c	0.10589811
70	0xbc95a6cf	-0.018268017
71	0x3e0d0356	0.13770804
72	0x3d58eaa9	0.052958164
73	0xbd94f1d5	-0.07272688
74	0x3d917e70	0.07104194
75	0x3ad5ad0a	0.001630218
76	0xbd04e2dd	-0.032442916
77	0xbcbeeec2	-0.023307208
78	0x3af11054	0.0018391707
79	0xbd3e75da	-0.04649911
80	0xbc812c8e	-0.015768316
81	0xbd384561	-0.04498804
82	0x3bc58f28	0.0060290284
83	0x3d41ce57	0.04731592
84	0x3d7a637f	0.061130043
85	0xbd29afa2	-0.041427262
86	0xbd1a8967	-0.037728693
87	0xbd23c80b	-0.039985698
88	0xbdc62df2	-0.09676732
89	0x3d308f79	0.043105576
90	0xbb9c8080	-0.0047760606
91	0x3d0da525	0.034581322
92	0xbb3f076f	-0.0029148718
93	0x3da2b369	0.07944376
94	0x3da7e878	0.08198637
95	0x3dfdacda	0.123864844
96	0xbdb3456c	-0.087534755
97	0xbdefb841	-0.117050655
98	0x3d8d6677	0.06904309
99	0xbd3345e8	-0.04376784
100	0x3d8a852c	0.06763682
101	0x3d1befcc	0.038070485
102	0x3da17d60	0.078852415
103	0x3d5834b4	0.052784637
104	0x3c8ddaf3	0.017316317
105	0x3dd13049	0.10214288
106	0xbdeb54e0	-0.11490798
107	0xbd90242f	-0.070381515
108	0xba01d557	-0.00049527496
109	0xbde95bec	-0.11394486
110	0xbd459204	-0.048234954
111	0x3da887cb	0.082290255
112	0x3e05c0f9	0.13061894
113	0xbdb695f9	-0.08915324
114	0x3d9ce717	0.076612644
115	0xbd500e8e	-0.05079513
116	0xbe06fa00	-0.13181305
117	0x3d4eb117	0.050461855
118	0x3d1ae1d1	0.03781301
119	0xbd0d37af	-0.034476932
120	0xbda06e04	-0.07833484
121	0x3c2ecba4	0.010668669
122	0x3c27fad0	0.010252669
123	0x3d33c28e	0.043886714
124	0xbdf82d50	-0.12118018
125	0xbd23fd4a	-0.040036477
126	0xbde67fad	-0.11254821
127	0xbdaee013	-0.085388325
128	0xbcd4590c	-0.025921367
129	0xbdc73cdd	-0.097284056
130	0x3deda61c	0.116039485
131	0xbdc5ec76	-0.09664242
132	0x3c799c5b	0.015235032
133	0xbd6a0eae	-0.057142906
134	0xbdaf5226	-0.085605904
135	0xbd162eac	-0.036665604
136	0x3cb351fd	0.021889681
137	0xbc8363e8	-0.01603885
138	0x3cbb7c8c	0.022886537
139	0xbdfe8701	-0.12428094
140	0x3cbd06ca	0.023074526
141	0x3d9e6c24	0.0773547
142	0xbbcebf19	-0.0063094017
143	0xbdd10c18	-0.10207385
144	0xbd286093	-0.041107725
145	0x3e154439	0.14576806
146	0xbc8a7d74	-0.016905524
147	0x3cee9d0d	0.029127622
148	0x3e05db1c	0.13071865
149	0x3d23481d	0.039863694
150	0x3d69891b	0.05701552
151	0x3d5ed52f	0.054402526
152	0xba6419d1	-0.0008701357
153	0xbdb9dc00	-0.09075165
154	0x3c9d4b84	0.019201048
155	0x3dcd4bca	0.10024221
156	0xbda008d6	-0.07814185
157	0xbcb47053	-0.022026217
158	0x3d94acb5	0.07259504
159	0x3d5e8a63	0.054331195
160	0x3de9a6f2	0.114087954
161	0xbd48b9dd	-0.049005378
162	0x3d452771	0.048133317
163	0xbdb73219	-0.08945102
164	0x3e070a69	0.13187565
165	0xbce32cbd	-0.027731294
166	0x3dbe289d	0.0928509
167	0x3dfc7623	0.1232722
168	0xbd6f9a95	-0.05849703
169	0x3e0f9c2c	0.14024419
170	0x3db88ac1	0.0901084
171	0x3d62a861	0.05533636
172	0x3da0b032	0.078461066
173	0x3e293e85	0.16527756
174	0x3dd2b2d2	0.102880135
175	0x3e1253dc	0.14289802
176	0xbe0aa6f4	-0.1354025
177	0x3d9b7d97	0.07592314
178	0x3d6768aa	0.0564963
179	0x3b729e57	0.0037020647
180	0x3d4bf467	0.049793627
181	0xbd97c9ef	-0.07411563
182	0xbd521cbb	-0.05129693
183	0x3dc7f875	0.09764186
184	0xbc9aee1f	-0.018912373
185	0x3dd4520a	0.1036721
186	0xbd869230	-0.06570852
187	0x3db187e8	0.086685
188	0x3df421ba	0.11920495
189	0xbddcecde	-0.10787366
190	0xbbe17b7b	-0.006881175
191	0x3d92ffa3	0.07177665
192	0xbc83c0b9	-0.016083108
193	0xbd426856	-0.047462784
194	0x3dabcda3	0.083888315
195	0x3cb7d4f0	0.022440404
196	0x3dd17963	0.10228231
197	0xbe1f9c0c	-0.15586871
198	0x3dc062ad	0.09393821
199	0xbe101cfc	-0.14073557

lstm.weight_ih_l1 f4 [200, 50]
0	0x3db21484	0.08695319
1	0x3c918b67	0.017766668
2	0x3cfb49a5	0.030674765
3	0x3d5b837c	0.05359219
4	0xbd10e1a8	-0.035371453
5	0x3df20d55	0.11818949
6	0xbbe958fe	-0.0071212044
7	0x3e178891	0.1479819
8	0xbd96343c	-0.07334182
9	0xbd4a458c	-0.04938273
10	0x3d4a0fd1	0.04933149
11	0x3d7a9cc0	0.061184645
12	0xbd3bf65d	-0.045889247
13	0x3d41bba1	0.047298077
14	0xbe016da1	-0.12639476
15	0xbc66b24b	-0.014080594
16	0xbd0efc4e	-0.034908585
17	0x3e1d17ee	0.1534116
18	0x3dda8df5	0.106716074
19	0x3d846291	0.064641126
20	0x3dc55937	0.09636157
21	0x3db1f5ac	0.08689436
22	0x3c6ac082	0.014328124
23	0xbda770a1	-0.08175779
24	0x3deaa398	0.11456984
25	0x3e162430	0.14662242
26	0xbe27bd49	-0.163808
27	0xbdaecf1c	-0.08535597
28	0xbdbd511e	-0.092439875
29	0x3d735552	0.05940754
30	0x3d71543b	0.05891822
31	0xbdf3fa4b	-0.11912974
32	0x3dbbb6a1	0.09165693
33	0xbe1a2e58	-0.15056741
34	0xbd84d9b6	-0.064868376
35	0x3d170f8c	0.03688006
36	0x3bd0da58	0.006373685
37	0xbe204205	-0.15650184
38	0xbddcb9da	-0.10777636
39	0x3bb85069	0.00562482
40	0xbdb3aa56	-0.087727234
41	0xbd1f8dc2	-0.03895355
42	0xbc63c7ca	-0.013902614
43	0xbe2aeb37	-0.1669129
44	0x3d5a024d	0.05322485
45	0xbc2deaa7	-0.0106150275
46	0xbb264b51	-0.0025374482
47	0x3de9a495	0.11408345
48	0x3db62424	0.08893612
49	0xbd3dd450	-0.046345055
50	0xbd20e7a6	-0.039283417
51	0xbe03efce	-0.12884447
52	0xbe14be06	-0.14525613
53	0xbd98cd09	-0.07460982
54	0x3d5d101f	0.053970452
55	0xbc902e1f	-0.017600117
56	0x3d0c7e98	0.034300417
57	0x3e1332ba	0.1437482
58	0x3de2e174	0.11078158
59	0xbcc032f2	-0.023461793
60	0x3d9ff63a	0.07810636
61	0x3cb53a4f	0.02212253
62	0x3d9af1a5	0.07565621
63	0x3d6fcfb6	0.058547698
64	0xbddd1c42	-0.107964054
65	0xbe0cabbf	-0.13737391
66	0x3c5451d5	0.012958963
67	0x3cb99740	0.02265513
68	0xbd6789fb	-0.056528073
69	0xbc5f9d4c	-0.013648342
70	0xbd94d27b	-0.072667085
71	0x3d8a38e1	0.0674913
72	0xbb9e6160	-0.0048333853
73	0x3e0a98ed	0.13534899
74	0xbc256ac8	-0.010096259
75	0x3e3752f2	0.17902735
76	0xbe287b29	-0.16453232
77	0xbdf9fb26	-0.12206106
78	0x3e002f18	0.12517965
79	0xbdfd48de	-0.12367414
80	0xbd7bdb4f	-0.061488446
81	0x3dd2a632	0.102856055
82	0x3db86864	0.09004286
83	0x3d2ac5d9	0.04169259
84	0x3b89a38a	0.0042004036
85	0x3d56f749	0.052481923
86	0x3bda2b55	0.0066579976
87	0x3bfd9af2	0.007739418
88	0xbde54b68	-0.11196023
89	0xbd2c9e3f	-0.042143103
90	0x3dbf5e2a	0.09344132
91	0x3e0daebb	0.13836186
92	0x3ded7ff8	0.11596674
93	0xbe039bae	-0.12852356
94	0x3d63b92e	0.055596523
95	0x3d157bbf	0.036494967
96	0xbd52d601	-0.05147362
97	0x3dea9dfa	0.11455913
98	0x3d9b9466	0.07596664
99	0xbc99b1c4	-0.018761523
100	0xbe12e337	-0.14344488
101	0xbd871d22	-0.065973535
102	0xbcd44bb3	-0.025915002
103	0xbdf7ea26	-0.12105207
104	0x3ce85087	0.02835871
105	0x3dd356c2	0.10319282
106	0xbd5cdc83	-0.053921234
107	0x3c7f4248	0.0155797675
108	0xbcc00fbd	-0.023445005
109	0x3cdd101d	0.026985222
110	0x3de3d29d	0.11124156
111	0xbe0fcd36	-0.14043126
112	0xbde72143	-0.11285641
113	0xbd2828a1	-0.04105437
114	0xbde86d8b	-0.11349019
115	0xbdd16c30	-0.10225713
116	0x3dc54c63	0.0963371
117	0xbc278039	-0.010223442
118	0xbde99fbc	-0.1140742
119	0xbd49f5a6	-0.049306534
120	0xbdea0a91	-0.11427797
121	0x3d8229ea	0.06355651
122	0xbde90a87	-0.11378961
123	0xbd1e0900	-0.0385828
124	0xbd92a2c5	-0.07159952
125	0xbe11adfa	-0.14226523
126	0xbdeb1968	-0.11479455
127	0x3dfa5ab1	0.12224329
128	0xbdb869a8	-0.09004527
129	0xbd1508c6	-0.03638532
130	0xbdb591cf	-0.088657014
131	0x3c039bed	0.008032781
132	0xbd82fa51	-0.063954
133	0x3d8b3cb7	0.0679869
134	0xbdf08511	-0.117441304
135	0x3dac6284	0.08417228
136	0xbdd85a4f	-0.105641
137	0xbd3e139f	-0.04640543
138	0xbdce4cf0	-0.100732684
139	0x3d6f61d5	0.05844291
140	0x3ddc1e96	0.10748021
141	0xbdc53e34	-0.09631005
142	0xbe070a59	-0.13187541
143	0xbcffd67c	-0.031230204
144	0x3de422da	0.1113946
145	0x3cebfa42	0.028805856
146	0xbe055185	-0.13019378
147	0x3ddcd475	0.107827105
148	0xbd62eb2a	-0.05540005
149	0xbcd4c877	-0.025974495
150	0xbd7deef7	-0.061995473
151	0x3bf04846	0.0073328344
152	0x3d43eda1	0.047834042
153	0xbd36ac57	-0.04459795
154	0x3e187400	0.14888
155	0xbe136ed7	-0.14397751
156	0x3d17d4af	0.037068065
157	0x3d451d49	0.04812363
158	0x3dd8cfed	0.10586534
159	0xbd58178f	-0.052756842
160	0x3da53fc3	0.08068802
161	0xbcea882d	-0.028629387
162	0xbe050c16	-0.12992892
163	0x3db638ba	0.088975385
164	0x3d156341	0.03647161
165	0x3c1d794b	0.009611438
166	0x3b2e6159	0.0026608317
167	0x3cd51df6	0.026015263
168	0x3b1f59f4	0.002431509
169	0x3de6e7de	0.11274694
170	0xbcb9b08c	-0.022667192
171	0x3cdbb5e8	0.026820138
172	0x3da70197	0.081546
173	0x3dce8dff	0.10085677
174	0xbdbb9047	-0.09158378
175	0xbe18369f	-0.14864586
176	0x3e17967b	0.14803497
177	0x3dee0a89	0.11623103
178	0xbdb6c68a	-0.08924587
179	0xbd072f8e	-0.033004336
180	0xbddf6699	-0.10908241
181	0x3d9728be	0.07380818
182	0xbe196bfe	-0.14982602
183	0x3dba8e4a	0.09109171
184	0xbe0ec2b5	-0.13941462
185	0x3c485171	0.012226448
186	0x3d092c7a	0.03348968
187	0xbb85bb18	-0.004081141
188	0x3db44638	0.08802456
189	0x3dfb379a	0.122664645
190	0xbd429949	-0.047509465
191	0xbd71fa08	-0.05907634
192	0x3d8ceadc	0.06880733
193	0xbd9fdf21	-0.0780623
194	0xbdcfa4ae	-0.10138832
195	0xbe09373a	-0.13399974
196	0x3debcf64	0.11514166
197	0x3dc1e5e7	0.094676785
198	0xbdac22fd	-0.08405111
199	0x3df68c11	0.12038434
200	0xbda67ca4	-0.08129242
201	0xbcf6b6ec	-0.03011652
202	0x3b25cf2a	0.0025300481
203	0xbdf4d5b2	-0.11954822
204	0x3de651df	0.112460844
205	0x3d5d3fec	0.05401604
206	0x3d55fddd	0.052244056
207	0x3c449ad4	0.0119998045
208	0x3c939a67	0.01801796
209	0x3e22a091	0.15881564
210	0xbd0957ca	-0.033530988
211	0x3dc1acf9	0.0945682
212	0xbd40d321	-0.04707635
213	0x3e0310c5	0.12799366
214	0xbdc9fa68	-0.09862214
215	0x3da1f532	0.079080954
216	0x3c80f4b8	0.015741691
217	0x3d8cd3f5	0.06876365
218	0xbdc40861	-0.09571911
219	0xbdda7390	-0.10666573
220	0x3d21f449	0.03953961
221	0xbdc519cd	-0.09624062
222	0xba22fe90	-0.00062177423
223	0xbdfd60a1	-0.12371946
224	0x3dcb5740	0.09928751
225	0xbe265201	-0.1624222
226	0x3da55140	0.08072138
227	0xbd8dfa20	-0.06932473
228	0xbcadabea	-0.02120014
229	0x3db4e2f1	0.08832348
230	0xbdd3be82	-0.10339071
231	0x3e0f8625	0.14016016
232	0x3db833eb	0.089942776
233	0xbddd00b0	-0.10791147
234	0xbd592e33	-0.053022575
235	0xbe1e9eb7	-0.15490232
236	0x3d3c76f8	0.046011895
237	0xbd89aabf	-0.0672202
238	0x3c8e42b0	0.017365783
239	0x3d29eb86	0.04148438
240	0x3ddea135	0.108705916
241	0x3c384003	0.01124573
242	0x3dee3b89	0.11632449
243	0x3b31cbf6	0.0027129627
244	0xbd9d75b8	-0.07688469
245	0x3ddf518b	0.10904225
246	0xbd722294	-0.059115008
247	0x3d1ac707	0.037787464
248	0xbb0a2299	-0.002107775
249	0x3d97b7a7	0.07408076
250	0xbdf9adfe	-0.121913895
251	0xbd53e64e	-0.051733308
252	0x3c43dea1	0.011954934
253	0xbd40be09	-0.04705623
254	0x3e32cd51	0.17461134
255	0x3bbc8008	0.005752567

lstm.weight_hh_l1 f4 [200, 50]
0	0x3d28c3fd	0.041202534
1	0x3dcad561	0.0990398
2	0xbcc50661	-0.024050893
3	0xbdafdd4e	-0.085871324
4	0xbbfbd675	-0.0076854774
5	0xbda3afeb	-0.07992538
6	0x3d20cf74	0.039260343
7	0xbc17e6ba	-0.009271318
8	0xbd5a8341	-0.05334783
9	0xbda9b9c8	-0.08287388
10	0x3dac50d9	0.08413858
11	0xbd483451	-0.048878018
12	0x3cf99f01	0.030471327
13	0x3d593ffe	0.053039543
14	0x3b8da21e	0.0043223044
15	0x3e19b79c	0.15011448
16	0x3d7c35f8	0.061574906
17	0xbe036d55	-0.12834676
18	0xbc77c783	-0.015123251
19	0x3c33f146	0.010982817
20	0x3bba1005	0.005678179
21	0x3d7051be	0.058671705
22	0x3d8197d7	0.06327789
23	0xbd04bcfd	-0.032406796
24	0xbe022492	-0.12709263
25	0x3dd145cf	0.10218393
26	0x3bec44e7	0.0072103622
27	0x3d4b1688	0.049582034
28	0xbda9b7c4	-0.08287004
29	0xbd6e9583	-0.058248054
30	0xbb4e2252	-0.0031453562
31	0xbe01cbd8	-0.12675416
32	0xbd270523	-0.040776383
33	0x3cacd6da	0.021098543
34	0xbaf33e27	-0.0018557952
35	0xbdb293ee	-0.087196216
36	0xbc1bee21	-0.009517224
37	0x3da3ca20	0.07997537
38	0xbe0ecf11	-0.13946177
39	0x3e0a6dea	0.13518491
40	0xbda0795c	-0.078356475
41	0x3e1612de	0.14655635
42	0x3df9f562	0.12205006
43	0xbd92491c	-0.07142851
44	0x3bd0f32f	0.006376646
45	0x3e0b5069	0.13604893
46	0xbdbbeafc	-0.09175679
47	0x3d738d28	0.05946079
48	0x3dbf13ea	0.0932997
49	0xbdaf0afc	-0.08547017
50	0x3dc25a3d	0.09489868
51	0xbd026f07	-0.031844165
52	0xbd9893d4	-0.07450071
53	0xbdd507cc	-0.10401878
54	0x3dba73f6	0.09104149
55	0x3da165e0	0.07880759
56	0x3e09566a	0.1341187
57	0xbdb780ef	-0.08960139
58	0x3e00c6ec	0.12575883
59	0x3dbc543c	0.09195754
60	0xbd98b41d	-0.07456229
61	0xbd624cd6	-0.055249058
62	0xbe0b6bf8	-0.13615406
63	0xbe115166	-0.14191207
64	0xbcf13a4c	-0.029446743
65	0xbce9d2d4	-0.028542913
66	0xbe12de0a	-0.14342514
67	0xbd085aa6	-0.033289574
68	0xbde3c5be	-0.11121701
69	0x3db6ebb0	0.089316726
70	0x3cf17dc1	0.02947891
71	0xbdac6dde	-0.08419393
72	0x3e0aac76	0.13542351
73	0xbe07006d	-0.13183756
74	0xbcf7d800	-0.030254364
75	0xbcc391bb	-0.0238732
76	0x3e153f20	0.14574862
77	0x3dc45a51	0.09587539
78	0x3dca1260	0.09866786
79	0xbbda7ad3	-0.006667474
80	0x3e0cc0f6	0.13745484
81	0x3e03496b	0.12820975
82	0x3d8c239d	0.0684273
83	0xbd840e3d	-0.06448028
84	0x3de60ae4	0.11232546
85	0x3dda5207	0.10660177
86	0x3d4d86cf	0.05017739
87	0xbcbbf7fd	-0.022945398
88	0x3c802182	0.015640978
89	0x3d9771bc	0.0739474
90	0x3dbbab2f	0.0916351
91	0x3e1a185d	0.15048356
92	0xbdb2d510	-0.08732045
93	0xbe02872d	-0.12746878
94	0x3d81b32b	0.06333002
95	0xbd8fb7fb	-0.07017513
96	0xbd7e9a74	-0.062159017
97	0xbd953db9	-0.07287163
98	0xbdf26eaf	-0.118375175
99	0xbcd3a55e	-0.02583569
100	0x3d7289a0	0.05921328
101	0xbda19ad1	-0.07890857
102	0xbe031a90	-0.12803102
103	0x3d3a0a06	0.045419715
104	0xbc4aa00d	-0.012367261
105	0x3d7a2906	0.06107428
106	0xbcd00f16	-0.025397819
107	0xbd8a92db	-0.06766292
108	0xbd8309a3	-0.063983224
109	0xbd049e9c	-0.032377824
110	0xbd8157b7	-0.063155584
111	0xbcdca849	-0.026935713
112	0x3d1ac14b	0.037781995
113	0xbdb8e546	-0.090281054
114	0x3d8adf9e	0.06780933
115	0xbde7ab1a	-0.11311932
116	0x3de7c75f	0.11317324
117	0x3e0f16e1	0.13973571
118	0x3c98cc8d	0.018652225
119	0xbdd14605	-0.10218433
120	0xbc87b0a6	-0.016563725
121	0x3d25144f	0.04030257
122	0x3dcb3229	0.09921677
123	0x3e2629b7	0.1622685
124	0xbd625f7b	-0.05526684
125	0xbd3481a5	-0.04406895
126	0xbd038e07	-0.03211787
127	0x3d6c68e8	0.057717234
128	0xbd122757	-0.03568205
129	0xbca1d675	-0.019755581
130	0xbd912dc8	-0.0708881
131	0x3da3fd8c	0.080073446
132	0xbc51e4d6	-0.012810906
133	0x3d5a84dc	0.05334936
134	0xbcc60722	-0.024173323
135	0x3d0b59ce	0.03402119
136	0xbd6ab64a	-0.05730275
137	0x3ddffcf2	0.10936917
138	0xbdec8252	-0.11548294
139	0x3de86b58	0.11348599
140	0x3d90f49d	0.07077906
141	0xbdecc5f4	-0.11561194
142	0xbc402bf2	-0.011729227
143	0xbddccd62	-0.10781361
144	0x3dac502f	0.08413731
145	0x3d43f799	0.04784355
146	0xbcb30be2	-0.021856252
147	0x3d582e12	0.05277831
148	0x3d8607b8	0.06544441
149	0xbce218f5	-0.027599791
150	0x3d8300af	0.06396615
151	0xbe08afdb	-0.13348334
152	0x3d30feac	0.043211624
153	0xbcaa3a92	-0.020779882
154	0xbdd3f157	-0.10348766
155	0x3d8e4b6d	0.0694798
156	0xb98f2b92	-0.00027307548
157	0xbdcab511	-0.09897817
158	0xbe179cfe	-0.14805982
159	0x3bd0d164	0.0063726176
160	0xbdeaffba	-0.11474557
161	0xbc5abff8	-0.013351433
162	0xbe03541e	-0.12825057
163	0x3cd06c14	0.02544216
164	0xbe0b4d1c	-0.13603634
165	0xbd10fd42	-0.035397775
166	0xbd1d330b	-0.038378756
167	0xbd364484	-0.044498935
168	0xbe01a1ff	-0.12659453
169	0x3d852aee	0.06502329
170	0xbe1cf3a8	-0.15327322
171	0xbddf07a7	-0.108901314
172	0xbdce93c6	-0.10086779
173	0x3df60f3a	0.12014623
174	0xbd9998ab	-0.07499822
175	0x3d3e5942	0.04647184
176	0x3db68221	0.08911539
177	0xbc3d7d33	-0.011565494
178	0x3d887acb	0.06664046
179	0x3cc6e9a3	0.024281329
180	0xbde7e5c1	-0.11323119
181	0xbd92578c	-0.071456045
182	0xbd996290	-0.074895024
183	0x3e1a25d6	0.15053496
184	0xbd94e394	-0.072699696
185	0xbdc8d735	-0.098066725
186	0xbe03396a	-0.1281487
187	0xbd30d42f	-0.043171104
188	0x3dadffb0	0.08496034
189	0x3b29a6f3	0.0025886863
190	0xbdb09725	-0.086225785
191	0x3dafbae1	0.08580566
192	0x3d6d191d	0.057885278
193	0x3cda5aeb	0.026654681
194	0x3c6ef89e	0.014585642
195	0xbd4573d8	-0.04820618
196	0x3e1c9d18	0.15294302
197	0xbbf4a6f5	-0.007466192
198	0xbd9cd454	-0.07657686
199	0xbdbdbb2e	-0.09264217
200	0x3dd90fe6	0.105987355
201	0x3cff6435	0.031175712
202	0xbe18402a	-0.14868227
203	0xbddc69be	-0.10762356
204	0xbd43b14e	-0.047776513
205	0x3cf9aa23	0.030476635
206	0x3c9d3cd3	0.019194042
207	0x3d4898cf	0.048973855
208	0xbc22bc8e	-0.00993265
209	0x3d963e6a	0.07336123
210	0xbd91f281	-0.07126332
211	0xbd4a5273	-0.049395036
212	0x3dba17e8	0.09086591
213	0x3df7a386	0.120917365
214	0xbe1f9338	-0.15583503
215	0x3dd27fb4	0.10278264
216	0x3db1d63d	0.08683441
217	0xbd072eef	-0.033003744
218	0xbdaa3002	-0.08309938
219	0x3c21c73f	0.009874164
220	0x3d80b973	0.06285372
221	0xbe143ef3	-0.14477138
222	0x3b81763e	0.003950863
223	0x3cb8b46d	0.022546971
224	0x3e07130d	0.13190861
225	0xbd83fe0b	-0.06444939
226	0xbdd08ef8	-0.10183519
227	0x3ddf2f25	0.10897664
228	0xbdec829a	-0.11548348
229	0xbd299d63	-0.04140986
230	0xbd24c9be	-0.04023146
231	0xbdd6f0dd	-0.1049516
232	0x3dcf1698	0.10111731
233	0x3e079d88	0.13243687
234	0x3d9714c1	0.07377005
235	0xbc5db531	-0.013531969
236	0xbd49320e	-0.04912
237	0x3e172034	0.14758378
238	0x3d779c98	0.060452074
239	0xbc4dc4dc	-0.012559142
240	0x3dd95067	0.10611039
241	0xbdfd4d90	-0.123683095
242	0x3e22a984	0.15884978
243	0xbc86b3fe	-0.016443249
244	0xbcb057a2	-0.021526162
245	0xbd8aab80	-0.06770992
246	0x3db6a703	0.08918574
247	0x3e0ea223	0.13929038
248	0xbdf7b395	-0.120947994
249	0x3e09f879	0.13473691
250	0x3d2aa1dc	0.041658267
251	0x3d66b6ad	0.056326557
252	0x3c1deb58	0.00963863
253	0xbe08c125	-0.13354929
254	0x3d86c7a1	0.06581045
255	0x3e0bed72	0.13664797

lstm.bias_ih_l1 f4 [200]
0	0xbdf481b6	-0.11938803
1	0xbd924cdb	-0.07143565
2	0x3d91a091	0.07110704
3	0xbd9d408c	-0.07678327
4	0xba6b8ac5	-0.0008985217
5	0xbd4edaed	-0.050501753
6	0xbe00bf06	-0.1257287
7	0xbe0997d3	-0.13436823
8	0x3dda1f48	0.10650498
9	0x3db8e302	0.09027673
10	0x3db6b184	0.08920577
11	0x3d60f164	0.054917708
12	0x3bc82411	0.006107815
13	0xbd536181	-0.05160666
14	0xbde7181c	-0.112838954
15	0xbd813792	-0.06309427
16	0x3d999918	0.074999034
17	0x3c29e8ed	0.010370475
18	0x3d6fd5b6	0.05855342
19	0xbd9058ec	-0.070482105
20	0xbc81971a	-0.015819121
21	0xbe11c1df	-0.14234112
22	0xbd18e783	-0.03733016
23	0xbcab08b1	-0.020878168
24	0x3d2adce4	0.041714564
25	0xbe0145cf	-0.12624286
26	0xbc34f11a	-0.011043811
27	0xbdfdb6f5	-0.12388412
28	0x3de2af34	0.110685736
29	0xbd302ef5	-0.04301353
30	0xbcec7641	-0.028864982
31	0xbda694bd	-0.08133838
32	0x3dc26c32	0.09493293
33	0xbd0c2c42	-0.034221895
34	0x3c081d7d	0.008307812
35	0xbce9db6c	-0.028547011
36	0xbdd8a5ef	-0.10578524
37	0xbd7dca6e	-0.06196063
38	0x3cd7a49d	0.02632361
39	0xbda4ccc5	-0.08046869
40	0xbd970123	-0.07373264
41	0x3d0afd04	0.0339327
42	0x3d63e421	0.055637483
43	0xbd850760	-0.06495547
44	0x3dd4bf86	0.10388093
45	0xbda897a5	-0.08232049
46	0xbc9f81d3	-0.019471085
47	0x3df833ad	0.121192314
48	0x3dd14d80	0.1021986
49	0x3df6e59e	0.12055515
50	0x3c703bc6	0.014662689
51	0x3c8cfedd	0.017211372
52	0xbe08a275	-0.13343222
53	0xbdc97167	-0.09836083
54	0xbb2f02b0	-0.0026704483
55	0x3dc0fc3d	0.09423111
56	0x3bd4ab38	0.0064901374
57	0xbb12c6f7	-0.0022396424
58	0xbd34afd9	-0.044113014
59	0xbcf55027	-0.029945446
60	0x3d005555	0.03133138
61	0xbdad94ed	-0.08475671
62	0x3d6030f6	0.054734193
63	0xbb850eec	-0.0040606167
64	0xbdf436a8	-0.11924487
65	0x3d742eac	0.059614822
66	0x3d3c059e	0.045903794
67	0x3d8e977a	0.069624856
68	0xbda51fec	-0.08062729
69	0x3d2634ea	0.040577807
70	0xbdaf74d6	-0.085672066
71	0x3d9ef5e2	0.07761742
72	0xbd28c8fc	-0.0412073
73	0xbd7f32c7	-0.062304284
74	0x3dc20983	0.094744705
75	0xbdf0d9df	-0.117603056
76	0xbddbadc1	-0.107265
77	0xbd7e2cda	-0.062054493
78	0xbd10f883	-0.03539325
79	0xbdf3b222	-0.118992105
80	0xbd92898e	-0.07155143
81	0x3c78e3ed	0.0151910605
82	0xbdf69aa6	-0.120412156
83	0x3ddadfa1	0.10687185
84	0x3d6e6240	0.058199167
85	0xbd77fd52	-0.06054432
86	0x3d9584c6	0.07300715
87	0x3d11f1f0	0.03563112
88	0x3dae6de3	0.08517053
89	0x3ccc4495	0.024935046
90	0xbdec05b5	-0.11524526
91	0xbdb84ed8	-0.08999413
92	0x3e14d61a	0.14534798
93	0x3e07fdd0	0.13280416
94	0x3dbbe6a0	0.091748476
95	0x3c903417	0.017602963
96	0xbc9ca9e2	-0.019123975
97	0xbe02013e	-0.12695786
98	0xbd878a19	-0.06618137
99	0xbcd561fd	-0.026047701
100	0x3d618f12	0.055068083
101	0x3d1acdc1	0.03779388
102	0x3d8e1310	0.0693723
103	0x3dc1d09a	0.09463616
104	0x3db1b67a	0.08677383
105	0xbdc437ae	-0.095809326
106	0x3d761acc	0.06008415
107	0xbd36f0e6	-0.044663332
108	0x3d8fdb4a	0.07024248
109	0xbb50c403	-0.0031855113
110	0xbc22778e	-0.009916199
111	0xbb86cb7a	-0.0041136118
112	0x3dd11faa	0.102111176
113	0xbd321da6	-0.043485306
114	0xbde723b8	-0.1128611
115	0x3de6b6e5	0.11265353
116	0xbd8bc79b	-0.06825181
117	0xbdd2dd7f	-0.10296153
118	0xbdd9fc4f	-0.10643827
119	0x3d1e9c66	0.038723372
120	0x3dc857df	0.09782385
121	0xbc7b34ef	-0.015332445
122	0xbcfa24f8	-0.030535206
123	0x39f85b50	0.0004737028
124	0xbe08a536	-0.13344273
125	0xbdda9c6b	-0.106743656
126	0xbcee210e	-0.029068496
127	0xbdfbac24	-0.122886926
128	0xbdb2e98b	-0.08735951
129	0xbd08ced0	-0.033400357
130	0x3d692ad4	0.05692561
131	0x3d02dd04	0.03194906
132	0x3d93cc68	0.07216722
133	0xbe03193e	-0.12802598
134	0x3df88991	0.12135614
135	0x3da09e25	0.07842664
136	0xbce04577	-0.027376873
137	0x3e06c5df	0.1316142
138	0x3d17da37	0.03707334
139	0xbd8ca75f	-0.06867861
140	0xbd592425	-0.053012986
141	0x3dd5688f	0.104203336
142	0xbde3c51e	-0.111215815
143	0x3e14abd4	0.14518672
144	0xba3f18b3	-0.0007289752
145	0x3d136ab1	0.03599042
146	0xbd829fc9	-0.06378133
147	0xbd3ac847	-0.045601156
148	0x3dbc38a2	0.09190489
149	0xbb188940	-0.0023275167
150	0xbddceb67	-0.10787087
151	0x3e0f87bd	0.14016624
152	0x3dbe0924	0.09279087
153	0xbe158bd9	-0.14604129
154	0x3da71276	0.08157818
155	0xbde50b78	-0.11183828
156	0x3d017e8a	0.031614818
157	0x3b8179d1	0.003951289
158	0xbd5f1b95	-0.054469664
159	0x3e4d7f77	0.20068155
160	0xbcdd4d1f	-0.027014313
161	0x3e0f287c	0.13980287
162	0xbd502ee5	-0.050825972
163	0xbdb5adab	-0.08871015
164	0xbc442b45	-0.011973207
165	0xbc835427	-0.016031338
166	0xbe057477	-0.13032709
167	0xbd440cb5	-0.04786368
168	0xbd6060af	-0.054779705
169	0xbd79369d	-0.0608431
170	0xbe0ae964	-0.13565594
171	0xbd95ccdb	-0.07314464
172	0x3b680ad6	0.003540685
173	0x3d38ab3b	0.045085173
174	0x3dae82f2	0.085210696
175	0x3e0abf2a	0.13549486
176	0x3c3f736c	0.011685234
177	0xbe06e176	-0.13171944
178	0xbd3f456e	-0.046697073
179	0x3bf5e99d	0.0075046555
180	0x3d86ea2e	0.06587635
181	0xbcdbe6a5	-0.026843378
182	0xbd5f94e3	-0.05458535
183	0x3dc2c559	0.09510297
184	0x3dea6502	0.11445047
185	0xbd0c3298	-0.034227937
186	0x3e12436b	0.1428353
187	0xbd80837e	-0.0627508
188	0xba6aa15a	-0.0008950435
189	0x3d3ded94	0.04636915
190	0xbe07450a	-0.1320993
191	0xbd41b091	-0.047287527
192	0x3e190495	0.14943154
193	0x3d0a52fd	0.03377055
194	0xbd91a331	-0.071112044
195	0xbdd3cbdb	-0.10341617
196	0x3d383576	0.04497286
197	0x3d6c01fa	0.057619072
198	0x3d4272d3	0.047472786
199	0x3db7272d	0.08943019

lstm.bias_hh_l1 f4 [200]
0	0xbd4f350d	-0.050587703
1	0xbd0d7ae6	-0.034541033
2	0xbd74b923	-0.059746873
3	0xbd95bcb3	-0.07311382
4	0x3d840ad4	0.06447378
5	0x3dc68a05	0.09694294
6	0xbe022fc2	-0.1271353
7	0x3c148d6b	0.00906692
8	0xbd43bfea	-0.047790445
9	0x3df045a8	0.11732036
10	0x3da76a06	0.08174519
11	0x3e0e2129	0.13879837
12	0xbe03a36c	-0.12855309
13	0x3d87a653	0.06623521
14	0x3d2111a9	0.039323483
15	0x3d96cf09	0.073637076
16	0xbd663254	-0.05620034
17	0x3e07dad4	0.1326707
18	0x3da2edda	0.07955523
19	0xbd3645fa	-0.04450033
20	0xbe1020a0	-0.14074945
21	0x3be1e33b	0.006893543
22	0x3d30acad	0.043133426
23	0x3dff0f56	0.12454097
24	0xbda3cbdf	-0.0799787
25	0xbda6a59a	-0.08137055
26	0xbc8b3bf2	-0.016996358
27	0xbc4611be	-0.012089191
28	0xbc7c245f	-0.015389531
29	0xbd975c44	-0.07390645
30	0x3e0697b6	0.1314381
31	0xbdbcc3c7	-0.09217029
32	0x3d92878d	0.071547605
33	0x3dc63516	0.09678094
34	0x3cd3a95c	0.025837593
35	0xbcd987d3	-0.026554024
36	0x3e0770bf	0.13226603
37	0xbca8a8d0	-0.020588309
38	0x3b1ff578	0.0024407785
39	0xbd9f4439	-0.07776684
40	0x3cad550f	0.021158723
41	0xbd69a259	-0.057039592
42	0xbda6f969	-0.0815304
43	0xbe01ce73	-0.1267641
44	0x3d4724c1	0.048619036
45	0x3d38b019	0.045089815
46	0x3dee5abf	0.11638402
47	0x3e11932d	0.142163
48	0xbc7b6c5e	-0.015345661
49	0x3cf9c8ff	0.03049135
50	0xbcf8fc20	-0.03039366
51	0x3d72d5c6	0.0592859
52	0x3d629510	0.05531794
53	0xbb5e81b9	-0.0033951832
54	0xbd4a2330	-0.049349964
55	0xbe1067fe	-0.1410217
56	0xbdcaf9a5	-0.09910897
57	0xbe03f4cd	-0.12886353
58	0xbdd47ef8	-0.1037578
59	0xbd378a0e	-0.044809394
60	0xbe00a4fa	-0.12562934
61	0xbdff195d	-0.124560095
62	0xbcd9b4d4	-0.026575483
63	0x3c3633a9	0.011120715
64	0x3dbf4e5a	0.09341116
65	0xbc730c6e	-0.014834506
66	0x3d932b02	0.071859375
67	0xbce4e32e	-0.027940359
68	0xbdb9e1e2	-0.09076287
69	0xbd76c882	-0.060249813
70	0x3de6f879	0.11277861
71	0xbd33cb04	-0.043894783
72	0x3db7bb7e	0.08971308
73	0xbd97a4f8	-0.07404512
74	0x3dbcb55b	0.09214278
75	0xbc9c6cb0	-0.019094795
76	0xbde4b207	-0.111667685
77	0x3d8cd5d1	0.0687672
78	0xbde1ba8a	-0.11021908
79	0x3e12e951	0.14346816
80	0xbc83e15b	-0.016098669
81	0x3d928173	0.07153597
82	0xbd650300	-0.055911064
83	0x3dacc2af	0.084355704
84	0xbdcb85c8	-0.09937626
85	0x3d40132a	0.046893276
86	0xbcd00413	-0.025392568
87	0x3d97dea0	0.07415509
88	0x3e028981	0.12747766
89	0x3d9a908b	0.07547101
90	0xbde9093c	-0.113787144
91	0xbd4d9d9e	-0.050199144
92	0x3d2c7436	0.042103015
93	0xbc9a1e60	-0.018813312
94	0xbdba1ec4	-0.09087899
95	0xbdf76c22	-0.120811716
96	0xbdc00bb3	-0.093772314
97	0xbdbc05a0	-0.091807604
98	0xbdb921b3	-0.09039631
99	0x3d847bf2	0.06468953
100	0x3ccd57bf	0.025066255
101	0x3de9b98e	0.11412345
102	0x3daf04a6	0.085458085
103	0xbdd9d5ed	-0.10636506
104	0xbd9128e3	-0.07087877
105	0x3c9afd30	0.018919557
106	0xbd623a88	-0.0552316
107	0xbd9186b3	-0.0710577
108	0x3dd7db35	0.10539857
109	0xbd828b2c	-0.06374201
110	0xbb275398	-0.0025532003
111	0xbda49f8f	-0.08038246
112	0xbda7958f	-0.08182823
113	0xbda8f32c	-0.08249506
114	0x3e0c5e0c	0.13707751
115	0x3d51ae55	0.051191647
116	0xbe16cca0	-0.14726496
117	0xbdc36653	-0.09541001
118	0x3d05c123	0.032654893
119	0xbddc0630	-0.10743368
120	0x3d0be14a	0.0341504
121	0x3da154f1	0.078775294
122	0x3c9e1143	0.01929534
123	0x3c39ac27	0.011332548
124	0xbe046721	-0.12929966
125	0x3c91723e	0.01775467
126	0x3d134225	0.035951752
127	0x3df4d928	0.11955482
128	0xbdea1051	-0.11428893
129	0x3c3d2fdc	0.011547055
130	0x3bfc3703	0.0076969876
131	0xbe1287bc	-0.14309591
132	0x3e0b2d99	0.13591613
133	0x3bc3bc01	0.0059733395
134	0x3d5e6c35	0.054302413
135	0xbda6f4e8	-0.08152181
136	0x3d76c394	0.06024511
137	0xbd63693a	-0.055520274
138	0xbdb2b032	-0.08725013
139	0x3dfcb421	0.12339044
140	0xbcfc8397	-0.030824466
141	0xbd8779c5	-0.066150226
142	0x3d189f91	0.03726155
143	0x3cbd4af1	0.023107024
144	0xbdc15e7b	-0.09441849
145	0xbbedfd1c	-0.007262839
146	0x3d7c173e	0.061545603
147	0xbd521ea3	-0.05129875
148	0xbd1c3520	-0.0381366
149	0xbcf06871	-0.029346677
150	0xbe00f1d6	-0.12592253
151	0x3daed97d	0.08537576
152	0xbdcb321c	-0.09921667
153	0xbd81450a	-0.06311996
154	0x3d8de478	0.069283426
155	0x3d6825ae	0.05667656
156	0x3de247f2	0.11048879
157	0xbd5dd828	-0.05416122
158	0x3d5e99e5	0.054345984
159	0x3cbb9e7c	0.02290272
160	0xbcb78f79	-0.02240728
161	0x3db6a71e	0.08918594
162	0xbd315ef1	-0.043303434
163	0xbb80c1f2	-0.00392937
164	0x3dfe2fdb	0.124114715
165	0x3b50e28c	0.0031873314
166	0xbda2e266	-0.07953338
167	0xbdbef370	-0.09323776
168	0xbda33e14	-0.07970825
169	0x3da875de	0.082256064
170	0x3ca45042	0.020057801
171	0x3dca083e	0.09864853
172	0x3d464fef	0.048416074
173	0xbdd255c9	-0.102702685
174	0x3dfd67d3	0.123733185
175	0xbd63092d	-0.055428673
176	0x3dd28ffb	0.10281368
177	0xbd08437e	-0.03326749
178	0xbe0dcada	-0.13846913
179	0x3d4efcad	0.05053394
180	0x3e162a2b	0.14664523
181	0x3da3efd8	0.08004731
182	0x3e0dec36	0.13859639
183	0xbd613382	-0.054980762
184	0x3dc1ff38	0.09472507
185	0xbe0bc385	-0.13648804
186	0x3daa2732	0.08308257
187	0x3cdef2be	0.027215358
188	0x3e05ff95	0.13085778
189	0xbda9ebef	-0.08296954
190	0xbe178b44	-0.1479922
191	0xbdabb71e	-0.08384536
192	0xbd72c1a7	-0.059266713
193	0xbd637e71	-0.055540506
194	0xbba49a28	-0.0050232597
195	0xbe127917	-0.14304005
196	0xbc838c6f	-0.016058175
197	0xbdcdaad8	-0.100423515
198	0x3d9400d5	0.07226721
199	0xbdf5a98f	-0.11995231

fc.weight f4 [1, 50]
0	0x3d830787	0.0639792
1	0x3dd8c36e	0.1058415
2	0x3b39cde2	0.0028351475
3	0xbd0e0a96	-0.034678064
4	0xbc0ef857	-0.008726201
5	0xbc2555ad	-0.0100912275
6	0xbd96abf0	-0.07357013
7	0x3dfe5814	0.12419143
8	0x3cce03b3	0.025148248
9	0x3d6f07b0	0.05835694
10	0xbe0884a7	-0.13331853
11	0xbe12a11b	-0.1431927
12	0x3df163d4	0.11786619
13	0x3d1afd55	0.037839253
14	0x3d6e81f9	0.05822942
15	0x3dd710ca	0.10501249
16	0xbe13457f	-0.1438198
17	0xbdd49295	-0.10379521
18	0x3d3a31a3	0.045457494
19	0x3d9e035a	0.07715483
20	0xbdd464af	-0.10370766
21	0xbcd605e0	-0.026125848
22	0x3d3f5cd2	0.04671938
23	0xbd301165	-0.04298534
24	0xbdf6ad1d	-0.120447375
25	0xbdd012b9	-0.10159821
26	0x3d6932c1	0.05693317
27	0xbdecc286	-0.1156054
28	0x3da23571	0.079203494
29	0xbdf935ab	-0.121684395
30	0x3de98521	0.114023454
31	0xbe0c954c	-0.13728827
32	0x3e0298cc	0.127536
33	0x3d3fad4a	0.04679612
34	0xbc9d583b	-0.01920711
35	0x3d54d6d8	0.051962703
36	0x3dabf1e3	0.083957456
37	0xbda0c330	-0.07849729
38	0xbd7124b1	-0.058872882
39	0x3d9bbb42	0.07604076
40	0x3dbaa4dd	0.091134764
41	0x3def6e24	0.116909295
42	0xbdcdb68a	-0.10044582
43	0x3dbce345	0.09223036
44	0xbc0b4508	-0.008500345
45	0xbd72382a	-0.059135593
46	0x3d1bac98	0.038006395
47	0x3d81ee23	0.06344249
48	0x3d97b73d	0.07407997
49	0x3d993acb	0.07481917
